Loading data...
Data loaded successfully.
Loading model...
Model loaded successfully.
Using device: cuda
----------------------------------------------------------------
        Layer (type)               Output Shape         Param #
================================================================
            Conv2d-1           [-1, 32, 32, 32]             864
       BatchNorm2d-2           [-1, 32, 32, 32]              64
              SiLU-3           [-1, 32, 32, 32]               0
            Conv2d-4           [-1, 64, 32, 32]          18,432
       BatchNorm2d-5           [-1, 64, 32, 32]             128
            Conv2d-6           [-1, 64, 32, 32]          36,864
           Dropout-7           [-1, 64, 32, 32]               0
       BatchNorm2d-8           [-1, 64, 32, 32]             128
 AdaptiveAvgPool2d-9             [-1, 64, 1, 1]               0
           Linear-10                    [-1, 4]             256
             SiLU-11                    [-1, 4]               0
           Linear-12                   [-1, 64]             256
          Sigmoid-13                   [-1, 64]               0
          SEBlock-14           [-1, 64, 32, 32]               0
           Conv2d-15           [-1, 64, 32, 32]           2,048
      BatchNorm2d-16           [-1, 64, 32, 32]             128
  SEResidualBlock-17           [-1, 64, 32, 32]               0
           Conv2d-18           [-1, 64, 32, 32]          36,864
      BatchNorm2d-19           [-1, 64, 32, 32]             128
           Conv2d-20           [-1, 64, 32, 32]          36,864
          Dropout-21           [-1, 64, 32, 32]               0
      BatchNorm2d-22           [-1, 64, 32, 32]             128
AdaptiveAvgPool2d-23             [-1, 64, 1, 1]               0
           Linear-24                    [-1, 4]             256
             SiLU-25                    [-1, 4]               0
           Linear-26                   [-1, 64]             256
          Sigmoid-27                   [-1, 64]               0
          SEBlock-28           [-1, 64, 32, 32]               0
  SEResidualBlock-29           [-1, 64, 32, 32]               0
           Conv2d-30           [-1, 64, 32, 32]          36,864
      BatchNorm2d-31           [-1, 64, 32, 32]             128
           Conv2d-32           [-1, 64, 32, 32]          36,864
          Dropout-33           [-1, 64, 32, 32]               0
      BatchNorm2d-34           [-1, 64, 32, 32]             128
AdaptiveAvgPool2d-35             [-1, 64, 1, 1]               0
           Linear-36                    [-1, 4]             256
             SiLU-37                    [-1, 4]               0
           Linear-38                   [-1, 64]             256
          Sigmoid-39                   [-1, 64]               0
          SEBlock-40           [-1, 64, 32, 32]               0
  SEResidualBlock-41           [-1, 64, 32, 32]               0
        MaxPool2d-42           [-1, 64, 31, 31]               0
           Conv2d-43          [-1, 128, 16, 16]          73,728
      BatchNorm2d-44          [-1, 128, 16, 16]             256
           Conv2d-45          [-1, 128, 16, 16]         147,456
          Dropout-46          [-1, 128, 16, 16]               0
      BatchNorm2d-47          [-1, 128, 16, 16]             256
AdaptiveAvgPool2d-48            [-1, 128, 1, 1]               0
           Linear-49                    [-1, 8]           1,024
             SiLU-50                    [-1, 8]               0
           Linear-51                  [-1, 128]           1,024
          Sigmoid-52                  [-1, 128]               0
          SEBlock-53          [-1, 128, 16, 16]               0
           Conv2d-54          [-1, 128, 16, 16]           8,192
      BatchNorm2d-55          [-1, 128, 16, 16]             256
  SEResidualBlock-56          [-1, 128, 16, 16]               0
           Conv2d-57          [-1, 128, 16, 16]         147,456
      BatchNorm2d-58          [-1, 128, 16, 16]             256
           Conv2d-59          [-1, 128, 16, 16]         147,456
          Dropout-60          [-1, 128, 16, 16]               0
      BatchNorm2d-61          [-1, 128, 16, 16]             256
AdaptiveAvgPool2d-62            [-1, 128, 1, 1]               0
           Linear-63                    [-1, 8]           1,024
             SiLU-64                    [-1, 8]               0
           Linear-65                  [-1, 128]           1,024
          Sigmoid-66                  [-1, 128]               0
          SEBlock-67          [-1, 128, 16, 16]               0
  SEResidualBlock-68          [-1, 128, 16, 16]               0
        MaxPool2d-69          [-1, 128, 15, 15]               0
           Conv2d-70            [-1, 256, 8, 8]         294,912
      BatchNorm2d-71            [-1, 256, 8, 8]             512
           Conv2d-72            [-1, 256, 8, 8]         589,824
          Dropout-73            [-1, 256, 8, 8]               0
      BatchNorm2d-74            [-1, 256, 8, 8]             512
AdaptiveAvgPool2d-75            [-1, 256, 1, 1]               0
           Linear-76                   [-1, 16]           4,096
             SiLU-77                   [-1, 16]               0
           Linear-78                  [-1, 256]           4,096
          Sigmoid-79                  [-1, 256]               0
          SEBlock-80            [-1, 256, 8, 8]               0
           Conv2d-81            [-1, 256, 8, 8]          32,768
      BatchNorm2d-82            [-1, 256, 8, 8]             512
  SEResidualBlock-83            [-1, 256, 8, 8]               0
        MaxPool2d-84            [-1, 256, 7, 7]               0
           Conv2d-85            [-1, 476, 4, 4]       1,096,704
      BatchNorm2d-86            [-1, 476, 4, 4]             952
           Conv2d-87            [-1, 476, 4, 4]       2,039,184
          Dropout-88            [-1, 476, 4, 4]               0
      BatchNorm2d-89            [-1, 476, 4, 4]             952
AdaptiveAvgPool2d-90            [-1, 476, 1, 1]               0
           Linear-91                   [-1, 29]          13,804
             SiLU-92                   [-1, 29]               0
           Linear-93                  [-1, 476]          13,804
          Sigmoid-94                  [-1, 476]               0
          SEBlock-95            [-1, 476, 4, 4]               0
           Conv2d-96            [-1, 476, 4, 4]         121,856
      BatchNorm2d-97            [-1, 476, 4, 4]             952
  SEResidualBlock-98            [-1, 476, 4, 4]               0
AdaptiveAvgPool2d-99            [-1, 476, 1, 1]               0
          Linear-100                   [-1, 10]           4,770
================================================================
Total params: 4,958,034
Trainable params: 4,958,034
Non-trainable params: 0
----------------------------------------------------------------
Input size (MB): 0.01
Forward/backward pass size (MB): 18.71
Params size (MB): 18.91
Estimated Total Size (MB): 37.64
----------------------------------------------------------------
 23%|███████████████████████████████████████████████████████▎                                                                                                                                                                                           | 89/391 [00:06<00:22, 13.61it/s]
