Loading data...
Data loaded successfully.
Loading model...
Model loaded successfully.
Using device: cuda
----------------------------------------------------------------
        Layer (type)               Output Shape         Param #
================================================================
            Conv2d-1           [-1, 32, 32, 32]             864
       BatchNorm2d-2           [-1, 32, 32, 32]              64
            Conv2d-3           [-1, 32, 32, 32]           9,216
       BatchNorm2d-4           [-1, 32, 32, 32]              64
            Conv2d-5           [-1, 32, 32, 32]           9,216
           Dropout-6           [-1, 32, 32, 32]               0
       BatchNorm2d-7           [-1, 32, 32, 32]              64
 AdaptiveAvgPool2d-8             [-1, 32, 1, 1]               0
            Linear-9                    [-1, 2]              64
             SiLU-10                    [-1, 2]               0
           Linear-11                   [-1, 32]              64
          Sigmoid-12                   [-1, 32]               0
          SEBlock-13           [-1, 32, 32, 32]               0
  SEResidualBlock-14           [-1, 32, 32, 32]               0
           Conv2d-15           [-1, 32, 32, 32]           9,216
      BatchNorm2d-16           [-1, 32, 32, 32]              64
           Conv2d-17           [-1, 32, 32, 32]           9,216
          Dropout-18           [-1, 32, 32, 32]               0
      BatchNorm2d-19           [-1, 32, 32, 32]              64
AdaptiveAvgPool2d-20             [-1, 32, 1, 1]               0
           Linear-21                    [-1, 2]              64
             SiLU-22                    [-1, 2]               0
           Linear-23                   [-1, 32]              64
          Sigmoid-24                   [-1, 32]               0
          SEBlock-25           [-1, 32, 32, 32]               0
  SEResidualBlock-26           [-1, 32, 32, 32]               0
        MaxPool2d-27           [-1, 32, 31, 31]               0
           Conv2d-28           [-1, 64, 16, 16]          18,432
      BatchNorm2d-29           [-1, 64, 16, 16]             128
           Conv2d-30           [-1, 64, 16, 16]          36,864
          Dropout-31           [-1, 64, 16, 16]               0
      BatchNorm2d-32           [-1, 64, 16, 16]             128
AdaptiveAvgPool2d-33             [-1, 64, 1, 1]               0
           Linear-34                    [-1, 4]             256
             SiLU-35                    [-1, 4]               0
           Linear-36                   [-1, 64]             256
          Sigmoid-37                   [-1, 64]               0
          SEBlock-38           [-1, 64, 16, 16]               0
           Conv2d-39           [-1, 64, 16, 16]           2,048
      BatchNorm2d-40           [-1, 64, 16, 16]             128
  SEResidualBlock-41           [-1, 64, 16, 16]               0
           Conv2d-42           [-1, 64, 16, 16]          36,864
      BatchNorm2d-43           [-1, 64, 16, 16]             128
           Conv2d-44           [-1, 64, 16, 16]          36,864
          Dropout-45           [-1, 64, 16, 16]               0
      BatchNorm2d-46           [-1, 64, 16, 16]             128
AdaptiveAvgPool2d-47             [-1, 64, 1, 1]               0
           Linear-48                    [-1, 4]             256
             SiLU-49                    [-1, 4]               0
           Linear-50                   [-1, 64]             256
          Sigmoid-51                   [-1, 64]               0
          SEBlock-52           [-1, 64, 16, 16]               0
  SEResidualBlock-53           [-1, 64, 16, 16]               0
        MaxPool2d-54           [-1, 64, 15, 15]               0
           Conv2d-55            [-1, 128, 8, 8]          73,728
      BatchNorm2d-56            [-1, 128, 8, 8]             256
           Conv2d-57            [-1, 128, 8, 8]         147,456
          Dropout-58            [-1, 128, 8, 8]               0
      BatchNorm2d-59            [-1, 128, 8, 8]             256
AdaptiveAvgPool2d-60            [-1, 128, 1, 1]               0
           Linear-61                    [-1, 8]           1,024
             SiLU-62                    [-1, 8]               0
           Linear-63                  [-1, 128]           1,024
          Sigmoid-64                  [-1, 128]               0
          SEBlock-65            [-1, 128, 8, 8]               0
           Conv2d-66            [-1, 128, 8, 8]           8,192
      BatchNorm2d-67            [-1, 128, 8, 8]             256
  SEResidualBlock-68            [-1, 128, 8, 8]               0
           Conv2d-69            [-1, 128, 8, 8]         147,456
      BatchNorm2d-70            [-1, 128, 8, 8]             256
           Conv2d-71            [-1, 128, 8, 8]         147,456
          Dropout-72            [-1, 128, 8, 8]               0
      BatchNorm2d-73            [-1, 128, 8, 8]             256
AdaptiveAvgPool2d-74            [-1, 128, 1, 1]               0
           Linear-75                    [-1, 8]           1,024
             SiLU-76                    [-1, 8]               0
           Linear-77                  [-1, 128]           1,024
          Sigmoid-78                  [-1, 128]               0
          SEBlock-79            [-1, 128, 8, 8]               0
  SEResidualBlock-80            [-1, 128, 8, 8]               0
        MaxPool2d-81            [-1, 128, 7, 7]               0
           Conv2d-82            [-1, 256, 4, 4]         294,912
      BatchNorm2d-83            [-1, 256, 4, 4]             512
           Conv2d-84            [-1, 256, 4, 4]         589,824
          Dropout-85            [-1, 256, 4, 4]               0
      BatchNorm2d-86            [-1, 256, 4, 4]             512
AdaptiveAvgPool2d-87            [-1, 256, 1, 1]               0
           Linear-88                   [-1, 16]           4,096
             SiLU-89                   [-1, 16]               0
           Linear-90                  [-1, 256]           4,096
          Sigmoid-91                  [-1, 256]               0
          SEBlock-92            [-1, 256, 4, 4]               0
           Conv2d-93            [-1, 256, 4, 4]          32,768
      BatchNorm2d-94            [-1, 256, 4, 4]             512
  SEResidualBlock-95            [-1, 256, 4, 4]               0
           Conv2d-96            [-1, 256, 4, 4]         589,824
      BatchNorm2d-97            [-1, 256, 4, 4]             512
           Conv2d-98            [-1, 256, 4, 4]         589,824
          Dropout-99            [-1, 256, 4, 4]               0
     BatchNorm2d-100            [-1, 256, 4, 4]             512
AdaptiveAvgPool2d-101            [-1, 256, 1, 1]               0
          Linear-102                   [-1, 16]           4,096
            SiLU-103                   [-1, 16]               0
          Linear-104                  [-1, 256]           4,096
         Sigmoid-105                  [-1, 256]               0
         SEBlock-106            [-1, 256, 4, 4]               0
 SEResidualBlock-107            [-1, 256, 4, 4]               0
       AvgPool2d-108            [-1, 256, 2, 2]               0
         Dropout-109                 [-1, 1024]               0
          Linear-110                  [-1, 800]         820,000
            ReLU-111                  [-1, 800]               0
          Linear-112                   [-1, 10]           8,010
================================================================
Total params: 3,644,810
Trainable params: 3,644,810
Non-trainable params: 0
----------------------------------------------------------------
Input size (MB): 0.01
Forward/backward pass size (MB): 7.94
Params size (MB): 13.90
Estimated Total Size (MB): 21.86
----------------------------------------------------------------
100%|██████████████████████████████████████████████████████████████████████████████████████████████████████████████████████████████████████████████████████████████████████████████████████████████████████████████████████████████████████████████████| 391/391 [00:23<00:00, 16.74it/s]
…
